/Library/Frameworks/Python.framework/Versions/3.6/bin/python3.6 /Users/sola/PycharmProjects/flappybird/model.py
Using TensorFlow backend.
pygame 1.9.4
Hello from the pygame community. https://www.pygame.org/contribute.html
_________________________________________________________________
Layer (type)                 Output Shape              Param #
=================================================================
conv2d_1 (Conv2D)            (None, 20, 20, 32)        2080
_________________________________________________________________
max_pooling2d_1 (MaxPooling2 (None, 10, 10, 32)        0
_________________________________________________________________
conv2d_2 (Conv2D)            (None, 5, 5, 64)          8256
_________________________________________________________________
max_pooling2d_2 (MaxPooling2 (None, 2, 2, 64)          0
_________________________________________________________________
flatten_1 (Flatten)          (None, 256)               0
_________________________________________________________________
dense_1 (Dense)              (None, 256)               65792
_________________________________________________________________
dense_2 (Dense)              (None, 2)                 514
=================================================================
Total params: 76,642
Trainable params: 76,642
Non-trainable params: 0
_________________________________________________________________
libpng warning: iCCP: known incorrect sRGB profile
libpng warning: iCCP: known incorrect sRGB profile
libpng warning: iCCP: known incorrect sRGB profile
libpng warning: iCCP: known incorrect sRGB profile
…
